…
, 'n_mlp_GIN': 2, 'learn_eps_GIN': True, 'neighbor_aggr_GIN': 'sum', 'sage_aggregator': 'mean', 'gated': False, 'pseudo_dim_MoNet': -1, 'kernel': -1, 'data_mode': 'default', 'gnn_per_block': -1, 'embedding_dim': -1, 'pool_ratio': -1, 'linkpred': True, 'num_pool': 1, 'cat': False, 'batch_size': 50, 'radius': 2, 'avg_node_num': 22, 'depth_of_mlp': 2, 'assign_dim': -1800, 'pos_enc': True, 'pos_enc_dim': 8, 'gpu_id': 0, 'total_param': 103189}

GINNet(
  (ginlayers): ModuleList(
    (0): GINLayer(
      (apply_func): ApplyNodeFunc(
        (mlp): MLP(
          (linears): ModuleList(
            (0): Linear(in_features=110, out_features=110, bias=True)
            (1): Linear(in_features=110, out_features=110, bias=True)
          )
          (batch_norms): ModuleList(
            (0): BatchNorm1d(110, eps=1e-05, momentum=0.1, affine=True, track_running_stats=True)
          )
        )
      )
      (conv): GINConv(
        (apply_func): ApplyNodeFunc(
          (mlp): MLP(
            (linears): ModuleList(
              (0): Linear(in_features=110, out_features=110, bias=True)
              (1): Linear(in_features=110, out_features=110, bias=True)
            )
            (batch_norms): ModuleList(
              (0): BatchNorm1d(110, eps=1e-05, momentum=0.1, affine=True, track_running_stats=True)
            )
          )
        )
      )
      (bn_node_h): BatchNorm1d(110, eps=1e-05, momentum=0.1, affine=True, track_running_stats=True)
    )
    (1): GINLayer(
      (apply_func): ApplyNodeFunc(
        (mlp): MLP(
          (linears): ModuleList(
            (0): Linear(in_features=110, out_features=110, bias=True)
            (1): Linear(in_features=110, out_features=110, bias=True)
          )
          (batch_norms): ModuleList(
            (0): BatchNorm1d(110, eps=1e-05, momentum=0.1, affine=True, track_running_stats=True)
          )
        )
      )
      (conv): GINConv(
        (apply_func): ApplyNodeFunc(
          (mlp): MLP(
            (linears): ModuleList(
              (0): Linear(in_features=110, out_features=110, bias=True)
              (1): Linear(in_features=110, out_features=110, bias=True)
            )
            (batch_norms): ModuleList(
              (0): BatchNorm1d(110, eps=1e-05, momentum=0.1, affine=True, track_running_stats=True)
            )
          )
        )
      )
      (bn_node_h): BatchNorm1d(110, eps=1e-05, momentum=0.1, affine=True, track_running_stats=True)
    )
    (2): GINLayer(
      (apply_func): ApplyNodeFunc(
        (mlp): MLP(
          (linears): ModuleList(
            (0): Linear(in_features=110, out_features=110, bias=True)
            (1): Linear(in_features=110, out_features=110, bias=True)
          )
          (batch_norms): ModuleList(
            (0): BatchNorm1d(110, eps=1e-05, momentum=0.1, affine=True, track_running_stats=True)
          )
        )
      )
      (conv): GINConv(
        (apply_func): ApplyNodeFunc(
          (mlp): MLP(
            (linears): ModuleList(
              (0): Linear(in_features=110, out_features=110, bias=True)
              (1): Linear(in_features=110, out_features=110, bias=True)
            )
            (batch_norms): ModuleList(
              (0): BatchNorm1d(110, eps=1e-05, momentum=0.1, affine=True, track_running_stats=True)
            )
          )
        )
      )
      (bn_node_h): BatchNorm1d(110, eps=1e-05, momentum=0.1, affine=True, track_running_stats=True)
    )
    (3): GINLayer(
      (apply_func): ApplyNodeFunc(
        (mlp): MLP(
          (linears): ModuleList(
            (0): Linear(in_features=110, out_features=110, bias=True)
            (1): Linear(in_features=110, out_features=110, bias=True)
          )
          (batch_norms): ModuleList(
            (0): BatchNorm1d(110, eps=1e-05, momentum=0.1, affine=True, track_running_stats=True)
          )
        )
      )
      (conv): GINConv(
        (apply_func): ApplyNodeFunc(
          (mlp): MLP(
            (linears): ModuleList(
              (0): Linear(in_features=110, out_features=110, bias=True)
              (1): Linear(in_features=110, out_features=110, bias=True)
            )
            (batch_norms): ModuleList(
              (0): BatchNorm1d(110, eps=1e-05, momentum=0.1, affine=True, track_running_stats=True)
            )
          )
        )
      )
      (bn_node_h): BatchNorm1d(110, eps=1e-05, momentum=0.1, affine=True, track_running_stats=True)
    )
  )
  (embedding_h): Linear(in_features=28, out_features=110, bias=True)
  (linears_prediction): ModuleList(
    (0): Linear(in_features=110, out_features=1, bias=True)
    (1): Linear(in_features=110, out_features=1, bias=True)
    (2): Linear(in_features=110, out_features=1, bias=True)
    (3): Linear(in_features=110, out_features=1, bias=True)
    (4): Linear(in_features=110, out_features=1, bias=True)
  )
  (pool): SumPooling()
)

Total Parameters: 103189


    FINAL RESULTS
TEST MAE: 0.5593
TRAIN MAE: 0.2878


    Convergence Time (Epochs): 405.0000
Total Time Taken: 0.5583 hrs
Average Time Per Epoch: 4.5731 s


